core_ai_model.onnx (onnx, 38184 bytes, 6 tensors)

fc1.weight f4 [128, 5]
0.27790898 -0.047633503 -0.22294457 0.040302508 0.13554442 0.19296974 -0.15202905 -0.21080916
-0.18469593 -0.22707388 0.1610012 0.1750835 0.44849473 0.18454266 -0.19030246 -0.4245316
0.41455567 0.028461635 0.36214203 -0.09672004 0.23490794 -0.39634737 -0.33869144 -0.21647307
-0.15063216 0.26641312 0.10299592 -0.10808755 -0.050415434 -0.42098632 0.20841908 -0.16827872
0.43902132 -0.06558476 0.21887036 -0.15876436 -0.39874572 0.35987037 0.07120967 0.24703592
0.29707336 0.3886913 -0.29752937 0.30928874 0.0076188683 -0.057360444 0.13504858 -0.4099111
-0.3391902 0.33895525 -0.1792785 -0.36782 -0.34234673 -0.11139557 -0.38939846 0.083799794
-0.16324311 0.15620318 0.19267395 0.028064555 0.14315385 0.2744611 0.38333064 0.20697217
-0.030938687 0.30351347 -0.30651867 -0.12930232 0.025443474 0.39901268 0.025154263 -0.43947294
0.24971277 0.30251664 -0.14953509 0.31742087 -0.27577433 -0.15454419 0.25379083 -0.06436838
-0.37117013 -0.21638547 0.008185476 0.3761667 0.3627373 -0.06722132 0.3127629 0.3697854
0.18464163 0.27630258 -0.062173124 0.30408883 0.086307496 -0.04015715 0.06915165 -0.30490384
-0.28510982 -0.38388115 0.31915027 -0.3560351 0.30980092 0.24049051 0.11576751 0.31462276
0.3643318 -0.113076806 0.07926947 -0.012315124 0.42082983 0.02406013 -0.4271849 0.19733566
0.010132849 -0.16453901 0.34670556 0.062139332 -0.29465348 0.056471586 -0.30130932 -0.20697264
0.4221123 0.42463323 0.22980683 -0.0895619 -0.03773839 0.3821736 -0.2242664 -0.20779109
0.007663155 0.091963544 -0.3551243 -0.07213858 -0.26247302 0.36939782 -0.119746774 -0.4099677
-0.22678643 0.095567584 -0.123203576 0.23491567 0.053535875 0.3994834 0.011880725 -0.30436194
0.030037265 0.3337874 -0.12808308 -0.35055402 -0.1936214 -0.15153538 0.04883619 0.41241577
0.18493292 0.018158961 0.15891673 0.052002948 0.2554601 -0.24885926 0.31630343 0.12721659
0.38147566 -0.44061255 -0.13557194 0.2893458 -0.26630372 -0.1631865 0.44122556 0.2584909
0.043342385 0.37512812 -0.12148103 0.15650898 -0.29178053 -0.029659122 -0.41733286 -0.29338712
0.35688156 0.26540315 -0.0054150224 -0.31803972 0.25234443 0.18887122 0.15281326 -0.11913966
-0.014212723 0.2358622 0.30127025 0.18153231 -0.41671905 -0.20133713 0.38176998 0.09873818
-0.35628435 0.13467495 -0.23693071 -0.21842311 -0.14774221 -0.22673103 0.25355017 -0.24167088
-0.26733553 -0.34427357 0.28469545 0.40369737 -0.07751301 0.33424345 -0.40239567 -0.12549868
0.13950545 -0.34304005 -0.4305488 -0.09076819 0.07709092 0.42082423 -0.40923357 0.41930836
-0.22975017 -0.2668603 0.43019697 0.051867746 0.2530146 -0.03259473 -0.35545585 -0.26641947
-0.39386752 0.42270458 -0.12287928 0.1723499 0.0625942 -0.4295307 0.044067822 0.040998064
-0.32573327 -0.3727358 0.32212007 -0.0071752127 -0.32058302 -0.016125377 0.28888834 0.1446306
0.09960699 0.0052151633 -0.24212058 0.4044541 -0.0057820487 -0.25256383 0.29226243 -0.17459199
-0.0019221604 0.32739615 -0.091991246 -0.19063704 0.1341158 0.030135278 0.32310408 -0.1020045
00000000: 164a 8e3e 591b 43bd 954b 64be 3e14 253d
00000010: 28cc 0a3e dc99 453e 81ad 1bbe 5bde 57be
00000020: ee20 3dbe 0e86 68be 80dd 243e 1749 333e
00000030: 1aa1 e53e c0f8 3c3e a6de 42be 355c d9be
00000040: a440 d43e 6028 e93c ae6a b93e 2815 c6bd
00000050: b58b 703e 0bee cabe f768 adbe 1eab 5dbe
00000060: 513f 1abe 4d67 883e 86ef d23d 015d ddbd
00000070: 6a80 4ebd 858b d7be d06b 553e 4251 2cbe
00000080: 67c7 e03e 4d51 86bd 8d1f 603e 2093 22be
00000090: 6628 ccbe ee40 b83e 60d6 913d fcf6 7c3e
000000a0: 001a 983e 8c02 c73e c555 98be 185b 9e3e
000000b0: b3a7 f93b c9f2 6abd 2d4a 0a3e dedf d1be
000000c0: 57aa adbe 8b8b ad3e c894 37be e752 bcbe
000000d0: 1248 afbe 5c23 e4bd 3c5f c7be 3a9f ab3d
000000e0: 3429 27be baf3 1f3e 524c 453e a3e7 e53c
000000f0: ec96 123e 2a86 8c3e ea43 c43e 83f0 533e
00000100: 2173 fdbc 1e66 9b3e 04f0 9cbe d467 04be
00000110: d56e d03c 644b cc3e 5010 ce3c 9902 e1be
00000120: b4b4 7f3e 76e3 9a3e ba1f 19be fd84 a23e
00000130: 4b32 8dbe d540 1ebe dff0 813e 92d3 83bd
00000140: 030a bebe 2794 5dbe 601c 063c ec98 c03e
00000150: b4b8 b93e 55ab 89bd 7522 a03e 8354 bd3e
00000160: b212 3d3e 8877 8d3e 3fa9 7ebd 88b1 9b3e
00000170: fcc1 b03d d37b 24bd 619f 8d3d 5b1c 9cbe
00000180: eaf9 91be 128c c4be aa67 a33e 3c4a b6be
00000190: 3a9e 9e3e 2543 763e 8417 ed3d 3c16 a13e
000001a0: b389 ba3e d094 e7bd 0858 a23d 60c5 49bc
000001b0: 0277 d73e c019 c53c fbb7 dabe 5c12 4a3e
000001c0: 4004 263c ea7c 28be 6483 b13e d085 7e3d
000001d0: d2dc 96be c04e 673d 3745 9abe a3f0 53be
000001e0: 1a1f d83e 8769 d93e 7b52 6b3e 3b6c b7bd
000001f0: 9293 1abd 42ac c33e 17a6 65be 30c7 54be
00000200: 341b fb3b 6257 bc3d dad2 b5be 64bd 93bd
00000210: dd62 86be b621 bd3e cc3d f5bd 49e7 d1be
00000220: b43a 68be f0b8 c33d 2852 fcbd bc8d 703e
00000230: 6f48 5b3d 1789 cc3e 5fa7 423c 54d5 9bbe
00000240: b610 f63c 2fe6 aa3e 3628 03be d17b b3be
00000250: b044 46be 172c 1bbe 7508 483d 2928 d33e
00000260: 0e5f 3d3e 1ac2 943c 11bb 223e 0b01 553d
00000270: abcb 823e f6d4 7ebe 86f2 a13e 1145 023e
00000280: c750 c33e f897 e1be 5fd3 0abe 2225 943e
00000290: f658 88be 5d1a 27be 51e8 e13e eb58 843e
000002a0: c987 313d cb10 c03e 0ccb f8bd e443 203e
000002b0: 4264 95be b0f7 f2bc a7ac d5be d636 96be
000002c0: 2eb9 b63e ece2 873e 8070 b1bb 1ad6 a2be
000002d0: 4a33 813e 7567 413e 147b 1c3e 7eff f3bd
000002e0: 7bdc 68bc dc85 713e 1840 9a3e 9be3 393e
000002f0: 335c d5be 522b 4ebe 5b77 c33e 3e37 ca3d
00000300: e76a b6be 3be8 093e f79d 72be 4faa 5fbe
00000310: bc49 17be 2e2c 68be 54d1 813e 9278 77be
00000320: 34e0 88be a044 b0be 9ac3 913e 6cb1 ce3e
00000330: 24bf 9ebd f521 ab3e ce06 cebe ba82 00be
00000340: 84da 0e3e f2a2 afbe e470 dcbe ace4 b9bd
00000350: d8e1 9d3d 4676 d73e 1087 d1be 96af d63e
00000360: a143 6bbe eaa1 88be c742 dc3e 4673 543d
00000370: 218b 813e 0d82 05bd 4ffe b5be 2268 88be
00000380: 01a9 c9be bc6c d83e 22a8 fbbd 7e7c 303e
00000390: 6331 803d 73eb dbbe 7680 343d 96ed 273d
000003a0: 83c6 a6be 3ad7 bebe ecec a43e 0c1e ebbb
000003b0: 7523 a4be 5e19 84bc 2ce9 933e 0b1a 143e
000003c0: c0fe cb3d f6e3 aa3b 75ee 77be 9c14 cf3e
000003d0: 5777 bdbb 0c50 81be 6ca3 953e 3ec8 32be
000003e0: 00f1 fbba 78a0 a73e e865 bcbd 5b36 43be
000003f0: a755 093e 42de f63c e66d a53e bce7 d0bd

fc1.bias f4 [128]
0.17921907 -0.14650501 -0.4092548 -0.046102256 -0.016342312 -0.18656254 -0.2101207 0.4330082
0.21227793 0.33956864 -0.4066553 0.2709321 -0.032789245 -0.06303324 -0.40684626 -0.045253493
0.44676214 0.41970408 0.07669949 0.3264523 0.04787514 -0.3683138 -0.01661715 -0.08077875
-0.26215175 0.13508034 0.20203167 -0.19445696 0.010217254 0.3176426 0.18291435 0.42048338
-0.36630285 0.36666137 -0.16131282 0.0386903 -0.1110871 -0.2017616 0.17437823 0.07724893
-0.36257282 -0.36955792 0.31922698 -0.2257834 -0.31333703 -0.36177453 -0.225327 0.08490825
-0.028910063 0.30422008 -0.23627688 -0.11458644 -0.03186149 -0.04430114 0.31473842 0.049759142
0.35293305 0.08385728 -0.39606926 0.18311977 0.26888746 -0.26903415 0.0066557825 0.36389923
-0.2624188 0.17931658 -0.21746095 0.0658772 -0.1751113 -0.09178856 0.38729107 0.19839823
-0.23925942 -0.3258362 -0.4324025 0.21144058 -0.42813537 -0.19396222 -0.16890837 -0.37854072
-0.13138554 0.116861045 0.32720232 -0.22027335 -0.37951308 -0.25821155 -0.3949815 -0.33824557
-0.23655863 0.17370789 -0.41197288 0.01645472 0.2512902 -0.4170363 0.41897452 0.21576062
-0.443556 -0.31457195 0.11823219 0.3810408 -0.29595384 -0.10858372 5.932192e-05 0.37575763
0.093602896 -0.039416 -0.17132287 0.079872906 -0.14443193 0.43065125 0.3946757 0.26592737
-0.081463635 0.31899706 0.41678503 -0.10173991 -0.39736724 -0.4457068 0.108355515 0.30239916
0.3515796 0.07288188 -0.12129884 -0.05256579 0.28796124 -0.036203787 0.11309174 -0.05079356
00000000: 3485 373e 6905 16be d889 d1be b8d5 3cbd
00000010: 50e0 85bc 400a 3fbe e129 57be 40b3 dd3e
00000020: 635f 593e f1db ad3e 2035 d0be 9db7 8a3e
00000030: 044e 06bd 9217 81bd 274e d0be ba5b 39bd
00000040: 02be e43e 74e3 d63e 9f14 9d3d c224 a73e
00000050: b918 443d a093 bcbe b020 88bc 546f a5bd
00000060: c138 86be 8052 0a3e 64e1 4e3e ba1f 47be
00000070: 4566 273c 0da2 a23e e64d 3b3e 9949 d73e
00000080: 0c8c bbbe 0abb bb3e 302f 25be b879 1e3d
00000090: a281 e3bd 989a 4ebe 3590 323e b034 9e3d
000000a0: 25a3 b9be b236 bdbe b871 a33e c333 67be
000000b0: b66d a0be 833a b9be 1fbc 66be 60e4 ad3d
000000c0: ccd4 ecbc bcc2 9b3e 91f2 71be 4cac eabd
000000d0: 3281 02bd 1d75 35bd 6525 a13e 3ed0 4b3d
000000e0: a4b3 b43e 5ebd ab3d 97c9 cabe c083 3b3e
000000f0: 9eab 893e d8be 89be c018 da3b 0051 ba3e
00000100: c25b 86be c49e 373e 15ae 5ebe a0ea 863d
00000110: 6050 33be a4fb bbbd 044b c63e e828 4b3e
00000120: 6c00 75be 01d4 a6be dc63 ddbe e183 583e
00000130: 8f34 dbbe 089e 46be 51f6 2cbe 17d0 c1be
00000140: ee89 06be d854 ef3d 1087 a73e 568f 61be
00000150: 8a4f c2be 4e34 84be 043b cabe 862e adbe
00000160: 6d3c 72be 7be0 313e 1cee d2be 0dcc 863c
00000170: 1ca9 803e c885 d5be d483 d63e 5af0 5c3e
00000180: c619 e3be 930f a1be b823 f23d c817 c33e
00000190: 4387 97be 2461 debd 6dd0 7838 4e63 c03e
000001a0: e0b2 bf3d ac72 21bd 436f 2fbe 6894 a33d
000001b0: f7e5 13be 527e dc3e ef12 ca3e a227 883e
000001c0: 68d6 a6bd 9553 a33e d964 d53e 045d d0bd
000001d0: b873 cbbe af33 e4be 7fe9 dd3d 10d4 9a3e
000001e0: 3e02 b43e 1843 953d 876b f8bd 3a4f 57bd
000001f0: a86f 933e 6c4a 14bd a49c e73d e80c 50bd

fc2.weight f4 [64, 128]
0.05343376 0.061134595 -0.08235022 -0.04437413 -0.045422744 -0.07611409 -0.050540313 -0.07253752
0.07217674 0.027172174 -0.0011978224 -0.032933343 -0.028630173 0.0054218546 -0.02351249 0.0047642747
-0.06331739 -0.08430536 0.063429825 0.0320869 0.056134354 0.032835394 -0.0705912 -0.010188431
-0.023891991 -0.08549615 -0.008141391 0.0412023 -0.0062643965 -0.054280203 -0.018128475 -0.038694806
0.04051879 -0.051909152 0.010742612 -0.00967399 -0.059515934 -0.0020406072 -0.09306155 0.016714439
-0.054843858 0.04178096 0.013291672 0.029464379 -0.015271105 -0.055741284 -0.07760549 -0.068964794
-0.029635144 -0.07572931 -0.03337664 0.030817218 0.04883899 0.05464206 -0.03466086 -0.04695386
0.0069365576 0.052675437 0.0117851375 -0.020928986 0.023344815 0.05139023 -0.02040568 0.056356497
0.018065035 0.0541709 0.07110221 -0.05018385 -0.0076386034 0.06605851 -0.061769262 -0.008624405
0.06936108 0.04155255 0.039130963 0.049683463 0.0065961042 -0.031265058 0.056807857 -0.02681489
-0.040349815 0.050636493 -0.03826955 0.07707443 -0.05591359 0.0745783 0.065977 0.06593405
0.008911268 -0.050386652 0.0017138723 0.08160996 -0.080874 -0.07344641 -0.07266999 0.029870896
-0.027247358 0.052149866 0.02513107 0.06968086 0.031323053 -0.0388248 0.07252961 0.04020665
-0.014249682 0.0713328 -0.076743335 0.077630274 0.021910721 0.028845131 -0.071760505 -0.08263595
0.009246788 0.032955356 0.06793277 -0.060233798 0.040615827 0.04651633 -0.08265594 0.0066634603
0.06975642 0.06492347 -0.047690485 -0.036436662 -0.045454573 -0.06552332 -0.028768828 -0.009444378
0.04129835 -0.058737155 0.018001178 0.008400142 -0.028188638 -0.029190013 0.040502597 -0.058480166
0.010161767 0.015828378 0.065437414 0.04589708 -0.0563587 0.079822294 0.085727625 0.0028287577
0.08336533 0.061140385 0.024808275 0.0005867258 -0.03640772 0.03787286 -0.014352754 0.05295279
0.025018003 -0.09408814 -0.015136838 0.05420769 -0.07844996 -0.08485346 -0.0354034 -0.05610495
0.06979874 0.044769987 -0.0007502064 0.068217985 0.07059487 -0.06113604 -0.01928934 0.08732944
0.068376996 0.0795392 -0.04457748 -0.094372205 0.0017361717 0.027823122 -0.023541095 0.06222079
0.06098773 0.033249974 0.07313373 0.030810744 -0.04026826 0.076657675 -0.040669687 0.054272577
0.022080198 0.03163738 0.07340448 0.07603919 -0.025353387 0.0219276 0.0020956397 0.08452091
-0.078103654 0.07352611 -0.060705878 0.068513 -0.054487582 0.045320608 -0.08468739 0.017930597
0.03301529 0.071210615 0.0544148 0.0022247853 -0.05435634 0.014526688 -0.015160728 -0.052271575
-0.06806764 0.018743575 0.081235446 0.05747098 -0.02341459 0.004309617 0.008558918 0.058658987
-0.0792133 -0.08376197 -0.055535138 -0.089053966 0.054388322 0.06635414 0.012660743 0.04426358
-0.053045705 -0.06977608 -0.028207 -0.04807424 0.05393961 0.00593514 -0.000565596 0.02484674
0.011057891 -0.073548734 0.009292686 0.08136592 0.04570545 0.07805142 0.025674004 0.004787639
0.057905544 -0.026717931 -0.0051265676 0.04329627 0.052814353 -0.0627866 -0.047460604 -0.07450367
-0.0463589 0.063320406 -0.017377622 -0.04922707 -0.033620212 0.010230291 0.048863273 -0.039468512
00000000: 5cdd 5a3d 4568 7a3d 3ba7 a8bd a6c1 35bd
00000010: 330d 3abd b4e1 9bbd 5c03 4fbd 8d8e 94bd
00000020: 66d1 933d 2e98 de3c 4000 9dba 1de5 06bd
00000030: d389 eabc d0a9 b13b 449d c0bc a21d 9c3b
00000040: 8cac 81bd 4aa8 acbd 7fe7 813d 8e6d 033d
00000050: 23ed 653d 687e 063d 1e92 90bd 60ed 26bc
00000060: 23b9 c3bc 9b18 afbd 7863 05bc bec3 283d
00000070: 9145 cdbb eb54 5ebd 2b82 94bc 727e 1ebd
00000080: 08f7 253d b19e 54bd c801 303c a87f 1ebc
00000090: fbc6 73bd b5bb 05bb 0e97 bebd b8ec 883c
000000a0: f4a3 60bd 8322 2b3d 50c5 593c 485f f13c
000000b0: a833 7abc f950 64bd a1ef 9ebd 6a3d 8dbd
000000c0: 67c5 f2bc f817 9bbd f2b5 08bd 6474 fc3c
000000d0: 650b 483d 5ad0 5f3d 8cf8 0dbd b152 40bd
000000e0: 104c e33b 33c2 573d 7316 413c 4473 abbc
000000f0: a03d bf3c 907e 523d d029 a7bc 12d6 663d
00000100: 20fd 933c 4ee2 5d3d 099e 913d 958d 4dbd
00000110: 404d fabb af49 873d c401 7dbd 604d 0dbc
00000120: 2f0d 8e3d 0233 2a3d ca47 203d e380 4b3d
00000130: 2224 d83b ca0f 00bd 5baf 683d e6aa dbbc
00000140: d945 25bd 3668 4f3d 88c0 1cbd 33d9 9d3d
00000150: a605 65bd 82bc 983d f31e 873d 6e08 873d
00000160: 9100 123c 3c62 4ebd 03a4 e03a 1f23 a73d
00000170: 45a1 a5bd 126b 96bd 01d4 94bd cfb3 f43c
00000180: da35 dfbc 199b 553d acdf cd3c d7b4 8e3d
00000190: 9a4c 003d c106 1fbd 678a 943d baaf 243d
000001a0: 8077 69bc ee16 923d 9c2b 9dbd 9ffc 9e3d
000001b0: 1d7e b33c a04c ec3c 2cf7 92bd 093d a9bd
000001c0: d77f 173c 32fc 063d 5620 8b3d b7b7 76bd
000001d0: c85c 263d e887 3e3d 8447 a9bd 2859 da3b
000001e0: 74dc 8e3d 99f6 843d 1957 43bd 9c3e 15bd
000001f0: 932e 3abd 1731 86bd 9bac ebbc 98bc 1abc
00000200: 7528 293d 5f96 70bd 3577 933c c0a0 093c
00000210: dceb e6bc e51f efbc 0de6 253d e688 6fbd
00000220: 8a7d 263c 84aa 813c 0d04 863d 94fe 3b3d
00000230: 61d8 66bd df79 a33d f791 af3d ae62 393b
00000240: 71bb aa3d 576e 7a3d b93a cb3c 80ce 193a
00000250: 4320 15bd 9220 1b3d d027 6bbc 06e5 583d
00000260: 8ef2 cc3c 48b1 c0bd 8000 78bc e208 5e3d
00000270: 5faa a0bd a7c7 adbd 2803 11bd 4ece 65bd
00000280: a4f2 8e3d bc60 373d 80a9 44ba dfb5 8b3d
00000290: 0b94 903d c969 7abd ae04 9ebc c7d9 b23d
000002a0: 3d09 8c3d 73e5 a23d e096 36bd 3746 c1bd
000002b0: 4190 e33a 51ed e33c 41d9 c0bc 3adb 7e3d
000002c0: 45ce 793d 2031 083d 23c7 953d d066 fc3c
000002d0: 55f0 24bd b3fe 9c3d 4295 26bd ec4c 5e3d
000002e0: 88e1 b43c 3396 013d 1755 963d 6fba 9b3d
000002f0: e8b1 cfbc 83a1 b33c 0057 093b 4d19 ad3d
00000300: cff4 9fbd db94 963d baa6 78bd 8b50 8c3d
00000310: 5f2e 5fbd 1aa2 393d 9570 adbd 30e3 923c
00000320: 0a3b 073d dfd6 913d 0ee2 5e3d b4cd 113b
00000330: c1a4 5ebd 5801 6e3c b464 78bc b81a 56bd
00000340: 0c67 8bbd 208c 993c c55e a63d b166 6b3d
00000350: f4cf bfbc b037 8d3b b43a 0c3c 6844 703d
00000360: 953a a2bd 658b abbd d078 63bd ed61 b6bd
00000370: 4ac6 5e3d aee4 873d 016f 4f3c ba4d 353d
00000380: 7446 59bd c3e6 8ebd 5e12 e7bc 7fe9 44bd
00000390: c8ef 5c3d 907b c23b 8144 14ba 648b cb3c
000003a0: 282c 353c b8a0 96bd 5a40 183c 2da3 a63d
000003b0: a335 3b3d 6cd9 9f3d 4a52 d23c a0e1 9c3b
000003c0: 5d2e 6d3d 90df dabc c4fc a7bb 6e57 313d
000003d0: dd53 583d 4396 80bd 0d66 42bd 6195 98bd
000003e0: d4e2 3dbd 21ae 813d 845b 8ebc 53a2 49bd
000003f0: 59b5 09bd f39c 273c db24 483d bca9 21bd

fc2.bias f4 [64]
0.013344181 -0.024598522 0.0076036574 -0.047295906 -0.029639982 0.06470911 -0.05976455 0.07706508
0.053434156 0.012380868 -0.07745676 -0.064471595 0.08327712 0.075816594 0.08713309 0.03178417
-0.001038447 0.03189802 0.009283107 -0.0084418375 -0.042048387 0.0256017 -0.07326708 0.049877692
0.08193373 -0.015730586 0.032604493 0.08771523 0.084848434 0.03858837 0.060434487 0.07133599
-0.018524474 -0.019957157 0.08087337 -0.08373646 0.041506 -0.048275866 0.0049491394 0.00049431674
-0.023847444 0.012767361 0.052321754 0.03259399 -0.05350029 -0.07176355 0.040367372 0.049496677
-0.058805767 -0.0080951005 -0.04513221 -0.05802346 0.08876774 0.079972036 0.07301073 0.07471329
-0.0037509254 0.049272306 0.001330249 -0.003342081 0.04086993 0.005340509 0.0060593113 0.056910828
00000000: 8da1 5a3c d782 c9bc 1a28 f93b 5ab9 41bd
00000010: 8ccf f2bc 3686 843d accb 74bd 4cd4 9d3d
00000020: c6dd 5a3d 20d9 4a3c a6a1 9ebd af09 84bd
00000030: 328d aa3d bb45 9b3d d572 b23d 1e30 023d
00000040: 801c 88ba 80a7 023d 2c18 183c a24f 0abc
00000050: ee3a 2cbd a8ba d13c 0d0d 96bd 8d4c 4c3d
00000060: dfcc a73d 6edd 80bc 4a8c 053d 0ba4 b33d
00000070: 04c5 ad3d d70e 1e3d 278a 773d 9b18 923d
00000080: a3c0 97bc 317d a3bc f0a0 a53d 057e abbd
00000090: 3202 2a3d eabc 45bd 642c a23b 0995 013a
000000a0: b75b c3bc 312e 513c 564f 563d 4781 053d
000000b0: 1f23 5bbd c5f8 92bd 4258 253d 07bd 4a3d
000000c0: 51de 70bd 50a1 04bc 8ddc 38bd 02aa 6dbd
000000d0: dccb b53d 61c8 a33d a686 953d 4803 993d
000000e0: 16d2 75bb c2d1 493d c05b ae3a d106 5bbb
000000f0: 3a67 273d 70ff ae3b 308d c63b 541b 693d

fc3.weight f4 [5, 64]
-0.1223844 -0.08621065 0.10219294 -0.088635504 -0.07403165 -0.07053274 0.0547525 0.1038211
-0.124321714 -0.0159138 0.069808096 -0.12475616 0.11638713 0.07942341 -0.03961198 -0.0031125546
-0.055913746 0.08625609 -0.055810243 -0.090884924 -0.07952599 -0.11503559 -0.021833792 -0.001956731
-0.07553522 -0.054853067 -0.02412796 0.047528625 0.056716233 0.10654205 0.010146901 -0.065008745
0.1037415 -0.05043997 -0.05601944 0.089220166 -0.028640196 0.047520682 -0.08284472 0.08465354
0.06269486 0.019611001 -0.1055868 -0.0024351329 0.015914157 0.10670504 -0.056592554 0.049748182
0.124245554 -0.060940787 -0.055750534 -0.09975311 -0.12201069 0.11903092 -0.021276861 -0.071306735
-0.035728052 -0.03484024 -0.008686885 -0.06475401 0.010008246 0.10752292 -0.04049456 0.10262744
0.088851385 0.11777169 0.08884252 -0.046924017 0.0726513 0.061562754 0.053768598 -0.0035759152
-0.09157996 -0.032989353 -0.12950712 -0.07574067 -0.025074685 -0.0071327686 0.10086704 0.121055946
-0.093798935 0.08407504 0.083242625 0.07712021 -0.011780775 -0.070533454 -0.12167614 0.11648432
-0.07059988 0.08202108 0.049724005 0.010599293 -0.12815613 -0.082312435 0.07648831 0.011617348
-0.10479651 -0.10765334 0.07648439 0.08075192 -0.11681196 -0.04747569 -0.022840695 -0.05579322
0.1002282 -0.002454245 -0.116669305 0.072659306 0.08775733 -0.0017436892 0.05007205 0.083179235
0.026939193 0.055304483 -0.023646023 0.05622402 0.00044934853 -0.08962616 -0.0694147 0.03147448
-0.12510104 0.028878734 0.015628412 -0.04983338 -0.11227092 -0.04769902 -0.051902942 0.11401848
-0.123426676 0.050417244 0.004729539 -0.0051977932 0.10258748 0.10900539 0.0577565 0.07520853
-0.112720415 0.024842903 0.11909787 -0.11791627 -0.069901556 -0.0055936277 -0.010996133 -0.06737472
0.08789621 -0.05149582 -0.11376488 0.031642184 0.12488642 0.018130004 -0.11146611 0.07306272
0.005422294 0.09232478 0.061979413 0.016487211 -0.028370023 0.04863578 0.06577012 0.040850073
-0.039239407 -0.008586213 -0.120712265 0.040073812 0.034867242 0.0242133 -0.05310695 -0.07935244
-0.07174228 -0.084524214 0.08183806 0.010480881 0.07989992 0.11235064 -0.124408156 -0.07296121
-0.034105018 -0.117596835 -0.09483917 0.121344924 -0.041291162 0.041570023 0.104028195 0.1049867
-0.11818157 -0.05943972 -0.08277017 -0.11819185 -0.10642406 0.07079607 0.098044395 -0.004951939
-0.0532059 0.073569074 0.027816715 -0.024525272 0.08527304 0.067753084 0.00095998263 0.119965285
0.11073458 0.088556916 0.06007778 0.078877375 0.01298064 -0.061795697 0.12028616 -0.023471728
0.04103917 -0.03897086 -0.08885158 0.016932813 -0.03774099 -0.093679845 0.07918871 0.03566025
0.10421708 0.09183737 -0.040523518 0.036396988 0.034918983 0.011900956 -0.0011078743 -0.05572042
-0.00086156314 0.08721113 0.12447244 -0.09357287 0.09356305 -0.07032709 -0.01590018 0.09465537
0.0483147 0.1112818 -0.07675301 -0.09060581 -0.084695525 0.09517656 -0.06152188 -0.004113907
-0.06631538 0.09320788 0.046330545 0.04017597 0.071997195 -0.11787173 0.1261139 0.040054314
0.055809252 -0.08727206 0.036142364 0.10636118 0.10717718 -0.095629886 -0.0808721 -0.066357076
00000000: aca4 fabd 368f b0bd 884a d13d 8886 b5bd
00000010: e89d 97bd 7873 90bd 2844 603d 28a0 d43d
00000020: 629c febd a85d 82bc 8cf7 8e3d 2880 ffbd
00000030: 605c ee3d bea8 a23d 2c40 22bd 00fc 4bbb
00000040: d005 65bd 08a7 b03d 4899 64bd e021 babd
00000050: 86de a2bd c897 ebbd c8dc b2bc 803c 00bb
00000060: 36b2 9abd 9cad 60bd 00a8 c5bc 60ad 423d
00000070: 484f 683d b832 da3d 303f 263c 4e23 85bd
00000080: 6c76 d43d 249a 4ebd a474 65bd 10b9 b63d
00000090: d89e eabc 0ca5 423d 7eaa a9bd d65e ad3d
000000a0: 2a66 803d 40a7 a03c e43d d8bd c096 1fbb
000000b0: 685e 823c 2c88 da3d 98cd 67bd c0c4 4b3d
000000c0: 7474 fe3d 0c9d 79bd ac5a 64bd 5c4b ccbd
000000d0: bee0 f9bd 7cc6 f33d d04c aebc 4409 92bd
000000e0: 9457 12bd a4b4 0ebd 7053 0ebc c09d 84bd
000000f0: a0f9 233c fa34 dc3d a0dd 25bd 562e d23d
00000100: b7f7 b53d 4932 f13d 11f3 b53d 6633 40bd
00000110: 34ca 943d 3a29 7c3d 763c 5c3d e759 6abb
00000120: 468e bbbd d81f 07bd 849d 04be ed1d 9bbd
00000130: 6d69 cdbc 00ba e9bb 6193 ce3d 2eec f73d
00000140: a819 c0bd 892f ac3d 1c7b aa3d 33f1 9d3d
00000150: 2704 41bc d873 90bd 5731 f9bd 558f ee3d
00000160: ab96 90bd abfa a73d 66ab 4b3d a8a8 2d3c
00000170: 5c3b 03be 6c93 a8bd e7a5 9c3d b056 3e3c
00000180: 8d9f d6bd 5b79 dcbd d9a3 9c3d 4361 a53d
00000190: 1c3b efbd de75 42bd 691c bbbc 6e87 64bd
000001a0: 7144 cd3d 66d7 20bb 51f0 eebd 67ce 943d
000001b0: 1dba b33d 808c e4ba 5a18 4d3d e059 aa3d
000001c0: 95af dc3c f486 623d 4eb5 c1bc 284b 663d
000001d0: 8a96 eb39 ec8d b7bd 4b29 8ebd 62eb 003d
000001e0: 7d1a 00be 1893 ec3c 2807 803c 161e 4cbd
000001f0: 4cee e5bd 0c60 43bd 2e98 54bd 8582 e93d
00000200: 20c7 fcbd 5082 4e3d 40fa 9a3b 4052 aabb
00000210: 6219 d23d 383e df3d 1492 6c3d ee06 9a3d
00000220: f6d9 e6bd 5883 cb3c 96e9 f33d 167e f1bd
00000230: 8c28 8fbd c04a b7bb 2029 34bc c2fb 89bd
00000240: ee02 b43d 48ed 52bd 90fd e8bd 3c9b 013d
00000250: 74c4 ff3d 6085 943c 5848 e4bd e8a1 953d
00000260: 80ad b13b c614 bd3d 20de 7d3d 3010 873c
00000270: 4068 e8bc 5036 473d 7cb2 863d 6852 273d
00000280: 80b9 20bd 30ad 0cbc fe37 f7bd 7024 243d
00000290: f4d0 0e3d f85a c63c ac86 59bd 8883 a2bd
000002a0: 9eed 92bd 081b adbd b69a a73d 00b8 2b3c
000002b0: 92a2 a33d 1818 e63d b4c9 febd b06c 95bd
000002c0: b4b1 0bbd 9cd6 f0bd 0a3b c2bd b083 f83d
000002d0: ec20 29bd 5445 2a3d bc0c d53d 4403 d73d
000002e0: 2e09 f2bd 1077 73bd 6883 a9bd 920e f2bd
000002f0: dcf4 d9bd 88fd 903d 80cb c83d e043 a2bb
00000300: 6eee 59bd 62ab 963d e1df e33c 39e9 c8bc
00000310: a2a3 ae3d 21c2 8a3d 58a7 7b3a 5cb0 f53d
00000320: d0c8 e23d 545d b53d 1e14 763d 768a a13d
00000330: c0ac 543c 7c1d 7dbd 9758 f63d c847 c0bc
00000340: b018 283d e99f 1fbd d1f7 b5bd afb6 8a3c
00000350: 4c96 1abd 38db bfbd b12d a23d 7b10 123d
00000360: c46f d53d 3b15 bc3d fdfb 25bd 0215 153d
00000370: 3507 0f3d 3afc 423c 1836 91ba 183b 64bd
00000380: 86da 61ba c09b b23d 68eb fe3d 22a3 bfbd
00000390: fc9d bf3d a607 90bd 1841 82bc adda c13d
000003a0: a3e5 453d b6e7 e33d af30 9dbd 8a8f b9bd
000003b0: d974 adbd eeeb c23d 5efe 7bbd f4cd 86bb
000003c0: 5cd0 87bd c6e3 be3d 19c5 3d3d 8f8f 243d
000003d0: 4473 933d bc66 f1bd 0124 013e fe0f 243d
000003e0: 3e98 643d b2bb b2bd 040a 143d e4d3 d93d
000003f0: b67f db3d 9ad9 c3bd 46a0 a5bd 38e6 87bd

fc3.bias f4 [5]
0.02135183 0.021357533 0.09327479 0.09645875 -0.065143645
00000000: 08ea ae3c fef5 ae3c da06 bf3d 2a8c c53d
00000010: 086a 85bd
