core_ai_model.onnx (onnx, 38184 bytes, 6 tensors)

fc1.weight f4 [128, 5]
0	0x3e4e83a8	0.2016741
1	0x3d74b6d0	0.059744656
2	0x3eb72faa	0.35778552
3	0xbe03eb48	-0.12882721
4	0x3eada8b6	0.3391778
5	0xbe897c78	-0.26852775
6	0x3dcaf218	0.09909457
7	0x3c2cd6e0	0.010549277
8	0xbead1f9d	-0.33813182
9	0xbeaac80c	-0.3335575
10	0xbee381a2	-0.4443484
11	0x3ea07a0c	0.31343114
12	0x3ebf9068	0.3741486
13	0xbeadf0dc	-0.33972824
14	0xbee1074a	-0.43950874
15	0xbe8254e6	-0.25455397
16	0x3e5fec7c	0.21867555
17	0xbd901794	-0.07035747
18	0xbccb9630	-0.024851888
19	0x3ee0a558	0.43876147
20	0xbb345280	-0.0027514994
21	0x3c968280	0.018372774
22	0xbe6aec43	-0.22941689
23	0xbe768419	-0.24073829
24	0xbe313bd2	-0.17307976
25	0xbe97d60f	-0.296555
26	0xbe1c340c	-0.1525423
27	0x3d57b698	0.05266437
28	0xbe88341e	-0.26602262
29	0xbec6f289	-0.38856915
30	0xbd957248	-0.07297188
31	0xbeaea0e0	-0.34107113
32	0x3edb73b4	0.42861712
33	0xbe9a2ac2	-0.30110747
34	0x3e4bade0	0.19890547
35	0xbc99d4e0	-0.018778265
36	0x3e32dad0	0.17466283
37	0x3de1fa00	0.11034012
38	0xbdaa887c	-0.083268136
39	0x3e9842d2	0.2973848
40	0x3eab7fd4	0.33495963
41	0xbe3e628e	-0.18592283
42	0x3d47fdc8	0.04882601
43	0x3ea2eb2c	0.31820047
44	0xbd3af850	-0.045646966
45	0xbebf9828	-0.37420774
46	0x3ea7293e	0.32648653
47	0xbd705228	-0.0586721
48	0x3e28ce78	0.16485012
49	0xbddc1924	-0.10746983
50	0xbe69c684	-0.22829634
51	0xbe1ce57c	-0.15321916
52	0x3e641a64	0.22275692
53	0xbedb1646	-0.4279043
54	0x3e5381e8	0.20655024
55	0xbcf7abb0	-0.030233234
56	0xbeb59d4a	-0.35471565
57	0xbcb3e8f0	-0.02196166
58	0x3db323e0	0.08747077
59	0xbea1c694	-0.31596816
60	0x3caf6f90	0.021415502
61	0xbe832168	-0.25611424
62	0x3de81908	0.11332899
63	0x3ec70a3e	0.38875002
64	0x3def49d0	0.116840005
65	0x3ec5b4d0	0.3861451
66	0xbec004fe	-0.3750381
67	0xbeabccdd	-0.33554736
68	0xbeb42aa4	-0.35188782
69	0xbe287e5a	-0.1645445
70	0xbe4127d6	-0.18862852
71	0xbe8524ae	-0.26004547
72	0x3b8d7340	0.0043167174
73	0xbd60be08	-0.054868728
74	0xbe62f7eb	-0.22164886
75	0xbe0d20c0	-0.13782024
76	0x3e0f7194	0.1400817
77	0xbea9bbb1	-0.3315101
78	0x3e9e48fe	0.30915064
79	0xbeb83eab	-0.35985312
80	0x3e8740e8	0.26416707
81	0xbd771150	-0.060319245
82	0xbdb5cd60	-0.08877063
83	0xbd973874	-0.073838145
84	0xbdad5238	-0.084629476
85	0x3e0781d0	0.13233113
86	0xbdba2e0c	-0.09090814
87	0x3df9e698	0.122021854
88	0x3e7cc3c0	0.24684048
89	0xbeccdaef	-0.40010783
90	0xbd039828	-0.03212753
91	0x3ecf1cd4	0.40451682
92	0x3ddc3910	0.10753071
93	0x3e160ba8	0.14652884
94	0x3d628ca0	0.05530989
95	0x3e8783ee	0.26467842
96	0xbda2a534	-0.07941666
97	0x3ea196a8	0.31560254
98	0xbd9eb8d8	-0.077501
99	0xbd879b4c	-0.066214174
100	0x3e40f6e0	0.18844175
101	0xbe4c2671	-0.19936539
102	0x3e906da4	0.2820865
103	0xbe9f10b2	-0.31067425
104	0x3e94b96a	0.2904771
105	0x3e9e119c	0.3087281
106	0xbe8d6838	-0.27618575
107	0xbe56b74d	-0.20968361
108	0xbbd1ac40	-0.0063987076
109	0xbed594f8	-0.41715217
110	0x3ddb0a48	0.1069532
111	0xbdce5e70	-0.10076606
112	0xbea00fb7	-0.3126199
113	0xbe88c0ac	-0.26709497
114	0x3ecc1046	0.39856166
115	0x3ed3f814	0.41400206
116	0x3dd77998	0.10521239
117	0x3df84488	0.12122446
118	0x3e034ea4	0.12822968
119	0x3ddb58a8	0.10710269
120	0x3e86a324	0.2629634
121	0x3e395888	0.18100178
122	0xbe9f73e7	-0.31143114
123	0xbee48cad	-0.44638577
124	0xbe1b88cc	-0.15188903
125	0xbeb00b6d	-0.34383717
126	0x3e39076c	0.18069237
127	0x3eb516c2	0.35368925
128	0x3ebc7cac	0.36813867
129	0x3eaf6888	0.3425944
130	0xbec9c9ac	-0.39411676
131	0x3e0cf6fc	0.13766092
132	0xbecf2886	-0.40460604
133	0x3ed85e8a	0.42259628
134	0x3e2e6cf8	0.17033756
135	0xbed8aafe	-0.42317957
136	0x3ea92864	0.33038628
137	0xbda4e11c	-0.08050749
138	0x3e7c1354	0.24616748
139	0x3e876634	0.26445162
140	0x3ed84f88	0.42248178
141	0x3d8315d0	0.06400645
142	0x3c58c0e0	0.013229579
143	0xbeaa6e99	-0.33287504
144	0x3cc8f920	0.024532855
145	0x3e55f204	0.20893103
146	0xbe85f13e	-0.26160616
147	0x3ea19008	0.315552
148	0xbe0f01d4	-0.13965541
149	0xbe5aed77	-0.21379648
150	0x3db546e8	0.08851415
151	0x3a229a00	0.00062027574
152	0x3e65238c	0.22376841
153	0x3ece123c	0.40248287
154	0xbe62b745	-0.22140224
155	0xbd6e97c0	-0.05825019
156	0xbe876fce	-0.26452488
157	0xbd81a1d0	-0.063296914
158	0xbe9bcff2	-0.30432087
159	0x3ebda230	0.37037802
160	0x3e7b134c	0.2451908
161	0xbeabfb40	-0.33590126
162	0xbe588e4d	-0.21148033
163	0x3e75d254	0.24006015
164	0x3ea7de8e	0.32786983
165	0x3ebe861e	0.37211698
166	0xbea32400	-0.31863403
167	0x3eabf854	0.33587897
168	0x3ec1b3e8	0.3783257
169	0xbe48a324	-0.19593483
170	0xbd0b1bf8	-0.03396222
171	0x3e5d3f54	0.21606189
172	0x3e1a63e8	0.15077174
173	0x3ed53194	0.41639388
174	0xbe04bc68	-0.12962496
175	0xbec6391c	-0.38715446
176	0xbc92a8d0	-0.017902762
177	0x3e6f1530	0.23347926
178	0x3d9cac80	0.07650089
179	0xbe7bb8f3	-0.24582271
180	0xbd83b550	-0.06431067
181	0x3e71e0c4	0.23620898
182	0x3e2fef28	0.17181075
183	0x3e688ed8	0.2271074
184	0x3e6a102c	0.22857732
185	0xbe7b67b6	-0.24551281
186	0xbeb9b9c6	-0.36274546
187	0xbd2b3c48	-0.041805536
188	0x3d33eb98	0.04392585
189	0xbed4adc2	-0.41538817
190	0xbe2fa44e	-0.17152521
191	0xbc5d90c0	-0.013523281
192	0xbea70e0b	-0.326279
193	0x3ea1778e	0.31536525
194	0xbcd713b0	-0.026254505
195	0x3e5bf1e0	0.21478987
196	0x3eaa6ace	0.3328461
197	0xbea9040a	-0.33010894
198	0x3e7c03d4	0.24610835
199	0xbe2c4508	-0.16823208
200	0xbbbe0840	-0.0057993233
201	0xbeb4befd	-0.35301962
202	0x3e6de820	0.2323308
203	0x3da8fce0	0.08251357
204	0xbe970430	-0.29495382
205	0x3ecac7b2	0.3960548
206	0x3e6aa30c	0.2291376
207	0xbedee688	-0.43535256
208	0x3e13b278	0.14423549
209	0x3ed64228	0.41847348
210	0x3decf568	0.11570245
211	0xbeab14e1	-0.33414367
212	0xbe1de0ce	-0.15417787
213	0x3eb2260a	0.34794647
214	0x3e3d7328	0.1850096
215	0xbdf671f4	-0.120334536
216	0x3e8bf582	0.27335745
217	0xbe650b55	-0.22367604
218	0xbebf4af2	-0.37361866
219	0x3e083a8c	0.13303584
220	0xbe5d6d6a	-0.2162377
221	0x3e73aac8	0.23795617
222	0xbed7eb29	-0.421716
223	0xbe8cf2a4	-0.2752887
224	0xbea2bb7c	-0.31783664
225	0x3ea3ca62	0.31990343
226	0x3e00789c	0.12546009
227	0xbe2b4a70	-0.16727614
228	0x3dd9e920	0.10640168
229	0x3ea19372	0.31557804
230	0xbe388dc2	-0.18022826
231	0xbec23a26	-0.3793499
232	0xbec0f39c	-0.3768586
233	0x3e258ce8	0.16167033
234	0x3e2a1d88	0.16612828
235	0x3d0461b0	0.032319725
236	0x3ecc0c06	0.39852923
237	0x3ecdec28	0.40219235
238	0xbe20f822	-0.15719655
239	0x3e2e3b00	0.17014694
240	0xbdcb2b1c	-0.09920332
241	0xbe06ad02	-0.13151935
242	0xbebf7a46	-0.37397975
243	0xbe628d57	-0.2212423
244	0xbdbf30fc	-0.09335515
245	0xbeda54f9	-0.42642954
246	0x3e652440	0.2237711
247	0xbe5b7e52	-0.21434906
248	0x3e6baec8	0.23015893
249	0x3e603b54	0.21897632
250	0x3e66e8d8	0.2254976
251	0xbe1f4496	-0.15553507
252	0xbe7a01c9	-0.24414743
253	0xbe58a083	-0.2115498
254	0xbee37478	-0.44424796
255	0x3d864c90	0.06557572

fc1.bias f4 [128]
0	0x3f0bc722	0.5460073
1	0x3e30a90f	0.1725199
2	0xbdc870d8	-0.09787148
3	0x3f115328	0.5676751
4	0xbe96fe46	-0.2949087
5	0x3ed85517	0.42252418
6	0xbe80b097	-0.25134727
7	0xbe5bb09e	-0.21454093
8	0x3eb53ca2	0.35397822
9	0x3e984fd2	0.29748398
10	0x3ee4a35c	0.44655883
11	0xbe87a210	-0.2649083
12	0xbe036116	-0.12830004
13	0x3edd0a33	0.43171844
14	0x3e95dcbd	0.29269972
15	0x3e248a97	0.16068493
16	0x3f03dbb5	0.5150712
17	0xbed7d328	-0.42153287
18	0x3e55d3d8	0.20881593
19	0x3ed3e096	0.41382283
20	0x3ebb8c61	0.36630538
21	0x3e554f06	0.20830926
22	0xbe92e2b6	-0.28688592
23	0xbe4ccec7	-0.20000754
24	0xbda64204	-0.0811806
25	0x3ef3597d	0.47529212
26	0xbec03232	-0.37538296
27	0xbe3d4400	-0.18482971
28	0x3e4edb32	0.20200804
29	0x3efd9358	0.49526477
30	0x3ebe59ba	0.3717783
31	0x3ec03dad	0.37547055
32	0xbb87f300	-0.004148841
33	0x3f128d69	0.57247025
34	0x3f039d0d	0.51411515
35	0x3ef72a04	0.48274243
36	0xbd613c98	-0.054989427
37	0x3efc222c	0.4924482
38	0x3e4eb631	0.20186688
39	0xbecc314d	-0.39881364
40	0x3ed933bd	0.42422286
41	0xbe369b18	-0.17832601
42	0x3ed257ee	0.4108271
43	0xbdd82770	-0.10554397
44	0xbdee4814	-0.116348416
45	0x3f0c41d9	0.54787976
46	0xbe58072c	-0.21096486
47	0xbb6cb380	-0.0036117733
48	0xbe0ac44c	-0.13551444
49	0xbe30a948	-0.17252076
50	0x3e8f58e4	0.27997506
51	0x3e65b711	0.22433116
52	0xbea7fe41	-0.32811168
53	0xb9a35800	-0.00031155348
54	0xbe64710f	-0.22308753
55	0xbe250e88	-0.16118824
56	0x3ee969f5	0.4558865
57	0x3f0f2353	0.55913275
58	0x3e714890	0.23562837
59	0xbecce5eb	-0.40019163
60	0xbe212262	-0.15735772
61	0x3ea8de83	0.32982263
62	0x3ebdc93f	0.370676
63	0xbe23bab8	-0.15989196
64	0xbe92988b	-0.28632006
65	0x3ef261bc	0.4734019
66	0xbedf0248	-0.43556428
67	0x3e51a522	0.2047315
68	0x3ebb0f3c	0.3653506
69	0x3e3d7a9a	0.185038
70	0xbe279c02	-0.16368106
71	0xbd1ce8f0	-0.038308084
72	0xbe27075a	-0.16311398
73	0x3ebd5329	0.3697751
74	0xbe829b46	-0.2550909
75	0xbe5fcdaa	-0.21855798
76	0xbebcde3f	-0.3688831
77	0xbdab2ebc	-0.08358523
78	0xbea9fc0b	-0.33200106
79	0xbe755959	-0.23959865
80	0x3e4c615f	0.19959019
81	0xbec3ca81	-0.38240436
82	0x3e257b8c	0.1616041
83	0xbec108b2	-0.37701946
84	0x3ef1ae29	0.47203186
85	0x3f0c5ec1	0.54832083
86	0x3efdf02b	0.49597296
87	0x3eaf8016	0.3427741
88	0xbec4faf2	-0.38472706
89	0x3ea1ef8c	0.31628072
90	0xbda75ca0	-0.08171964
91	0x3ecb884a	0.39752418
92	0xbe8198a2	-0.25311762
93	0xbe5d1d8b	-0.21593301
94	0xbd268a90	-0.040659487
95	0x3e164b84	0.14677244
96	0xbec99367	-0.39370272
97	0xbe040fc4	-0.12896639
98	0xbe1d4ebc	-0.15362066
99	0x3f01d9e2	0.5072309
100	0x3e27032f	0.16309808
101	0x3ef1c6ba	0.4722193
102	0xbd076078	-0.033050984
103	0xbe596c5b	-0.2123274
104	0x3ec48e49	0.38389805
105	0xbe0a9cae	-0.13536331
106	0xbe939710	-0.2882619
107	0xbb04db80	-0.0020272434
108	0xbd9eae80	-0.07748127
109	0x3e79cba0	0.24394083
110	0xbe3a36f4	-0.18185025
111	0x3ef4692f	0.477365
112	0xbdf5aaac	-0.11995444
113	0xbddc0f80	-0.10745144
114	0x3eeafaf6	0.45894593
115	0x3f11ebf2	0.5700065
116	0xbe89c994	-0.26911604
117	0x3f164eed	0.5871418
118	0x3f09b3d4	0.5379002
119	0x3e74c80c	0.23904437
120	0xbd8fd250	-0.07022536
121	0x3e118c16	0.14213595
122	0xbc21eb60	-0.009882778
123	0xbe6a2590	-0.22865891
124	0x3ee94370	0.45559263
125	0x3edf1984	0.43574154
126	0xbed3a08a	-0.4133342
127	0x3e9604e9	0.2930062

fc2.weight f4 [64, 128]
0	0xbd8949da	-0.06703539
1	0xbc5e13e8	-0.013554551
2	0xbd24fa2f	-0.040277656
3	0xbdaa4cc6	-0.083154246
4	0x3c8500e0	0.016235769
5	0x3cd93e80	0.02651906
6	0x3d347226	0.044054173
7	0xbc3763a8	-0.0111931935
8	0xbd8d9050	-0.06912291
9	0x3c1eb6e0	0.0096871555
10	0xbdb16137	-0.086611204
11	0xbc926ec8	-0.01787509
12	0xbceffc3e	-0.029295083
13	0xbc2c2390	-0.010506526
14	0xbd8769f8	-0.06612009
15	0x3d77d56e	0.060506277
16	0xbd1ac5bc	-0.03778623
17	0xbd4fad48	-0.050702363
18	0x3d0f63ce	0.03500729
19	0x3d6dae0e	0.05802732
20	0xbda8b3fd	-0.08237455
21	0xbd11d8e2	-0.035607226
22	0xbda8b075	-0.082367815
23	0xbd6aaebe	-0.057295553
24	0xbceb6782	-0.02873588
25	0x3bf9ede0	0.007627234
26	0x3d44eee2	0.04807938
27	0x3ca4f480	0.020136118
28	0x3d8c63bf	0.068549626
29	0x3d90e027	0.07074004
30	0xbd903b3e	-0.070425496
31	0xbd400d06	-0.04688742
32	0xbd85219c	-0.06500551
33	0x3d36f77a	0.044669606
34	0xbb5080e0	-0.0031815097
35	0x3d523b0a	0.051325835
36	0x3d9e9c15	0.07744614
37	0xbd56fc6e	-0.05248683
38	0xbd992602	-0.074779525
39	0xbd8006dd	-0.06251309
40	0x3d8add99	0.06780548
41	0xbd93f804	-0.072250396
42	0x3db30333	0.087408446
43	0x3d4f280a	0.050575294
44	0xbd9e1ae1	-0.077199705
45	0x3d46eb3a	0.048564173
46	0xbbc1d4b0	-0.005915247
47	0xbca5d14c	-0.020241402
48	0x3ccef8dc	0.02526515
49	0xbd866aaf	-0.06563317
50	0xbadc54c0	-0.0016809925
51	0xbd433efe	-0.047667496
52	0xbd7971f4	-0.06089969
53	0xbd878f07	-0.06619077
54	0x3da22b21	0.079183824
55	0xbd8d1cc6	-0.06890254
56	0xbd17aec5	-0.037031908
57	0x3c95d248	0.018288746
58	0x3d968dd1	0.07351268
59	0x3d900fa1	0.07034231
60	0x3da4c235	0.080448546
61	0xbda66960	-0.081255674
62	0xbda114be	-0.078652844
63	0x3b1add20	0.0023630336
64	0xbd610490	-0.05493599
65	0xbc0e1038	-0.008670859
66	0x3d2ab566	0.0416769
67	0xbcd58e1e	-0.026068743
68	0xbd0b33a7	-0.033984806
69	0xbd8efe4b	-0.06982096
70	0x3d8ff219	0.07028598
71	0xbd48db50	-0.049037278
72	0x3d46df42	0.04855276
73	0x3c82f4c0	0.015985847
74	0xbd2ad63c	-0.041708216
75	0xbced3342	-0.028955106
76	0x3d1dba5a	0.038507797
77	0xbd9b95a0	-0.07596898
78	0xbd81fe90	-0.06347382
79	0x3daf9c07	0.08574682
80	0x3d511122	0.05104173
81	0xbd06c905	-0.03290655
82	0xbd376236	-0.044771396
83	0x3d2479ea	0.04015533
84	0x3cff9484	0.031198747
85	0x3d000118	0.031251043
86	0xbc3f3678	-0.011670701
87	0x3cfbb868	0.03072758
88	0xbda4d941	-0.080492504
89	0x3d830c83	0.06398871
90	0xbce9e67c	-0.028552286
91	0x3da5d697	0.080975704
92	0x3d9039d9	0.070422836
93	0xbc7a0f70	-0.01526247
94	0x3d304b1a	0.043040372
95	0xbd72b65e	-0.05925595
96	0xbcf80fd8	-0.030280992
97	0x3c102988	0.008798964
98	0x3d9d6bdd	0.07686589
99	0xbd692a35	-0.056925017
100	0x3cd321d8	0.025772974
101	0x3d638b32	0.05555267
102	0xbca382ac	-0.01995977
103	0x3d00c38c	0.031436488
104	0xbc939e88	-0.01801993
105	0x3cab4094	0.020904817
106	0xbd835cb2	-0.064141646
107	0x3db20bd1	0.0869366
108	0xbcde5224	-0.027138777
109	0xbbddf2e0	-0.0067733377
110	0x3d8331b1	0.06405962
111	0x3b13f100	0.0022574067
112	0xbd8bab0c	-0.06819734
113	0xbd3f5c8e	-0.046719126
114	0x3cbe23b4	0.023210384
115	0xbda0d170	-0.07852447
116	0x3db372db	0.08762141
117	0xbcf45c36	-0.029829126
118	0xbc66e508	-0.014092691
119	0x3c0e63e0	0.008690804
120	0x3d8728c7	0.065995745
121	0x3cef58cc	0.029217146
122	0xbd09f84b	-0.033684056
123	0x3d8068a5	0.06269959
124	0x3d9f79dd	0.077869155
125	0x3c71de10	0.0147624165
126	0x3d9169e9	0.07100279
127	0xbca73f90	-0.020416051
128	0x3c1504cf	0.009095385
129	0x3c87542a	0.016519625
130	0x3d57ae12	0.05265624
131	0xbd7553ff	-0.059894558
132	0xbda66532	-0.0812477
133	0xbd8e6c08	-0.06954199
134	0x3d0e2792	0.034705706
135	0xbbe6ea50	-0.007046975
136	0x3cf2c378	0.029634222
137	0x3d0da020	0.034576535
138	0x3d6b20fa	0.057404496
139	0x3ccd3ff4	0.02505491
140	0xbd88c7af	-0.066787116
141	0xbd9385a9	-0.07203228
142	0x3d948707	0.07252317
143	0x3d824215	0.063602604
144	0x3c497e3b	0.012298162
145	0x3c499da0	0.012305647
146	0x3cbf9551	0.02338663
147	0x3d4680e2	0.048462756
148	0x3ba95269	0.0051672948
149	0x3a992a95	0.0011685664
150	0x3d18fab2	0.037348457
151	0xbd86da0f	-0.0658456
152	0xbd44636a	-0.04794637
153	0x3d8f71ce	0.070041284
154	0xbc982634	-0.018572904
155	0xbcba84c0	-0.022768378
156	0xbd765eca	-0.06014899
157	0x3d6e61b5	0.05819865
158	0xbcd19f22	-0.025588576
159	0xbd4980dd	-0.04919516
160	0xbd0ab909	-0.03386787
161	0xbdaf78d3	-0.08567967
162	0x3c5b5d2e	0.013388915
163	0xbdbd27da	-0.09236117
164	0x3c0c8da8	0.008578695
165	0xbd247b03	-0.040156376
166	0x3c83b492	0.016077314
167	0x3c8143ac	0.015779339
168	0xbdc9ff5a	-0.098631576
169	0xbd0a32ba	-0.033739783
170	0xbd522078	-0.051300496
171	0xbd96477c	-0.07337853
172	0x3d42deda	0.04757581
173	0xbda4e34d	-0.08051167
174	0x3db2eabd	0.08736179
175	0xbc8c3328	-0.017114237
176	0xbcdc3af8	-0.026883587
177	0xbc47f898	-0.012205265
178	0xbc6cf154	-0.014461834
179	0xbcf8700e	-0.03032687
180	0x3ce1f74c	0.02758374
181	0xbd8302c1	-0.0639701
182	0x3d758f46	0.05995109
183	0xbd673336	-0.056445323
184	0xbd2439bb	-0.04009412
185	0xbd93ccf4	-0.07216826
186	0xbd03fb0a	-0.03222183
187	0x3d5e57a6	0.054282807
188	0x3d041b8a	0.032252826
189	0x3d839269	0.0642441
190	0xbda3b8c2	-0.07994224
191	0x3d453612	0.04814727
192	0xbd69218c	-0.05691676
193	0x3d95f4c7	0.07322078
194	0xbd046064	-0.032318488
195	0xbdbdf7bb	-0.092757665
196	0xbcda131a	-0.026620436
197	0xbd83590b	-0.06413468
198	0xbd25088c	-0.040291354
199	0xbd361417	-0.044452753
200	0xba209200	-0.00061252713
201	0x3d37c2c2	0.04486347
202	0x3d522736	0.051306926
203	0xbd83ee40	-0.06441927
204	0x3d28565a	0.041097976
205	0x3ca630f0	0.020287007
206	0x3d6c477a	0.057685353
207	0xbd58fc79	-0.05297515
208	0xbac3ca42	-0.0014937597
209	0xbce374da	-0.02776568
210	0xbdac2be7	-0.08406811
211	0xbcfe81ba	-0.031067718
212	0xbcd78ecc	-0.026313208
213	0x3c2b3468	0.010449506
214	0xbcd7ebd3	-0.026357567
215	0xbdcac0cd	-0.09900055
216	0x3d8bd04d	0.068268396
217	0x3d2567e1	0.04038227
218	0xbd75ccb1	-0.060009662
219	0x3d8fa485	0.070138015
220	0x3da4fde3	0.080562375
221	0x3d5c6fee	0.053817682
222	0x3d93d983	0.072192214
223	0x3d10b914	0.035332754
224	0xbd618c98	-0.05506572
225	0x3c1a1a78	0.009405725
226	0x3caf8a30	0.021428198
227	0x3c29ce99	0.010364198
228	0xbc5f1645	-0.013616149
229	0xbca94aee	-0.020665612
230	0xbd6b7332	-0.057482906
231	0x3c517cf0	0.012786135
232	0x3c790869	0.015199759
233	0xbd8265cb	-0.06367072
234	0xbcb0da64	-0.021588512
235	0x3d8182bf	0.06323766
236	0xbd695982	-0.056970127
237	0x3ca4a8c2	0.020100001
238	0xbdae1ecc	-0.08501968
239	0xbd8e900d	-0.06961069
240	0x394ffa00	0.0001983419
241	0xbcd3da24	-0.025860853
242	0xbc9ff033	-0.019523716
243	0xbbc1673f	-0.0059022005
244	0x3cb68ca4	0.02228386
245	0x3c565cb8	0.013083629
246	0xbc218b1e	-0.009859828
247	0x3d97dade	0.074147925
248	0xbd7d0ef8	-0.061781853
249	0x3cba9def	0.022780387
250	0x3d3f44d2	0.04669649
251	0x3ce9ded0	0.028548628
252	0x3d4719a5	0.04860844
253	0xbd927125	-0.07150487
254	0x3d86c1a3	0.06579902
255	0xbdbb3205	-0.091404

fc2.bias f4 [64]
0	0xbd25c7c9	-0.040473733
1	0xbd0f6c22	-0.035015233
2	0xbced1748	-0.028941765
3	0xbd6d8adc	-0.057993755
4	0x3d62448a	0.055241145
5	0xbd67db10	-0.0566054
6	0xbd80be86	-0.062863395
7	0x3d31e0b2	0.043427177
8	0x3da4eaef	0.080526225
9	0x3d85979d	0.065230586
10	0x3e39a047	0.18127547
11	0x3d10ec48	0.035381585
12	0x3eedb3ec	0.46426332
13	0xbd6fd44f	-0.058552083
14	0x3d546f8e	0.0518642
15	0xbccd9524	-0.02509553
16	0x3d408fd2	0.047012158
17	0xbd347ed2	-0.044066258
18	0x3e1b5668	0.1516968
19	0x3d34e2b6	0.04416152
20	0x3d06f182	0.032945164
21	0x3c940738	0.018069848
22	0x3c531606	0.012883669
23	0x3e2cf23c	0.1688928
24	0x3d59fd0e	0.053219847
25	0xbd64a5d8	-0.055822223
26	0x3e18f304	0.14936453
27	0x3d24cf5a	0.04023681
28	0x3e3978a0	0.18112421
29	0x3de53380	0.111914635
30	0x3dfd434f	0.12366354
31	0xbd5a6275	-0.053316552
32	0xbd61d1a8	-0.055131584
33	0xbd4c367a	-0.04985664
34	0x3c38a8a9	0.01127068
35	0xbdaa2ef0	-0.08309734
36	0x3c94422e	0.018097963
37	0x3e0becad	0.13664503
38	0xbc80ddcc	-0.015730761
39	0xbd462ed4	-0.048384503
40	0x3d3b9bb6	0.045802794
41	0xbca6bac8	-0.020352736
42	0x3de9e7d2	0.11421169
43	0xbcee230e	-0.02906945
44	0x3e01c4b3	0.12672691
45	0xbcff4db5	-0.031164983
46	0x3d41d802	0.04732514
47	0x3e3a9b8c	0.18223399
48	0xbda84d33	-0.082178496
49	0xbcd19ead	-0.025588358
50	0x3d9577b1	0.0729822
51	0x3d482232	0.048860736
52	0x3d95eea0	0.07320905
53	0x3cfb66cc	0.030688666
54	0x3d779bfb	0.06045149
55	0x3c69015e	0.014221517
56	0x3b679d40	0.003534153
57	0x3de2c991	0.11073602
58	0x3cda1654	0.026621975
59	0x3cef9544	0.02924598
60	0x3dd9ec7e	0.106408104
61	0x3d3af6de	0.045645587
62	0x3e0887bc	0.13333029
63	0x3ba174b0	0.0049272403

fc3.weight f4 [5, 64]
0	0xbca9a4e8	-0.020708516
1	0xbde4a39a	-0.11164017
2	0x3bb20440	0.0054326355
3	0xbb8f87c0	-0.0043801963
4	0x3d965baa	0.07341702
5	0xbe0565a9	-0.13027062
6	0x3d8587be	0.065200314
7	0xbde9730c	-0.113988966
8	0xbe6fd13e	-0.23419663
9	0x3b58e486	0.0033095195
10	0xbe06471e	-0.13113067
11	0xbdafb2e4	-0.085790426
12	0xbf5d5f42	-0.86473477
13	0xbbe6a4c9	-0.007038687
14	0xbd9737fe	-0.073837265
15	0x3d6cc254	0.057802513
16	0xbe461ee5	-0.19347723
17	0xbe07f98e	-0.13278791
18	0xbe460993	-0.1933959
19	0x3b1e7540	0.0024178773
20	0xbdb5e1e8	-0.08880979
21	0x3d8bf73c	0.068342656
22	0xbd7a9e8e	-0.061186366
23	0xbcaba7b1	-0.020953985
24	0xbcaa2398	-0.020768926
25	0xbd5e90f0	-0.054337442
26	0xbdea10d3	-0.1142899
27	0xbc9639c0	-0.018338084
28	0xbe4ffad0	-0.20310521
29	0x3959b5c1	0.00020762441
30	0xbe046bbd	-0.12931724
31	0x3c41d6a0	0.011830956
32	0xbdbbfbe4	-0.09178904
33	0x3bbc00c2	0.005737395
34	0xbde59fcb	-0.11212119
35	0x3c634600	0.01387167
36	0xbc5f7731	-0.013639257
37	0xbe5b6b22	-0.21427587
38	0xbd9dbec8	-0.07702404
39	0xbcd0bb12	-0.025479827
40	0xbe565af7	-0.20933138
41	0xbda8a6ca	-0.082349375
42	0xbe0f8d5c	-0.14018768
43	0xbcb50978	-0.022099242
44	0xbe3c390a	-0.18381134
45	0xbde913a2	-0.11380698
46	0x3deb9696	0.11503331
47	0xbd612dfc	-0.054975495
48	0xbd967584	-0.07346633
49	0x3d8aa37d	0.06769464
50	0xbdfe8b00	-0.12428856
51	0xbde5dda2	-0.11223914
52	0xbbcfe681	-0.006344617
53	0xbda5c762	-0.0809467
54	0xbde36655	-0.11103503
55	0xbd976e3c	-0.073940724
56	0x3c33b720	0.010968953
57	0xbd79990a	-0.060936965
58	0x3d8bd9b6	0.068286344
59	0x3db3f220	0.08786416
60	0x3c91b743	0.017787581
61	0xbd830c82	-0.0639887
62	0xbe695153	-0.22784929
63	0x3dd4e238	0.1039471
64	0x3a488c00	0.0007650256
65	0xbdc5b96e	-0.096545085
66	0x3da490a2	0.08035399
67	0xbdf118d4	-0.11772314
68	0x3d26482c	0.040596172
69	0x3db8fb1b	0.090322696
70	0x3de88a14	0.11354461
71	0x3d5a1800	0.053245544
72	0xbc830e71	-0.015998097
73	0xbe5ada1c	-0.21372265
74	0x3ac3fe99	0.0014953195
75	0x3dcbfcf0	0.099603534
76	0xbf648344	-0.89262795
77	0x3d907551	0.07053626
78	0x3bd962c0	0.0066340864
79	0x3dfbbc56	0.122917816
80	0xbd1d3303	-0.038378727
81	0xbdb6a1db	-0.0891759
82	0xbda74c50	-0.08168852
83	0x3da3b466	0.07993393
84	0xbd3acc1e	-0.045604818
85	0xb89a4800	-7.356703e-05
86	0xbda51aa8	-0.08061725
87	0xbdc6934e	-0.09696065
88	0x3dbac71a	0.09120007
89	0x3cc35588	0.023844495
90	0xbe139e54	-0.14415866
91	0xbd8048da	-0.06263895
92	0xbe4d9d2e	-0.2007949
93	0xbe31a017	-0.17346226
94	0xbe40a93a	-0.18814555
95	0x3cc30be0	0.023809373
96	0xbdd8a7e0	-0.105788946
97	0xbc464418	-0.012101196
98	0xbdbcd034	-0.09219399
99	0xbdb7ee28	-0.089809716
100	0x3d3c721b	0.046007257
101	0xbe0bab10	-0.13639474
102	0x3d0cf308	0.03441146
103	0x3c6b4eb0	0.014362022
104	0x3b236522	0.0024932106
105	0x3ca3f368	0.020013526
106	0xbe6ef726	-0.23336467
107	0x3d826862	0.06367566
108	0xbe09d6b5	-0.1346081
109	0x3b9c87e8	0.0047769435
110	0x3dca71b0	0.098849654
111	0xbe1e9ed0	-0.1549027
112	0x3c6554dd	0.013997284
113	0x3da8b057	0.08236759
114	0x3d72a477	0.059238877
115	0x3de1bbb6	0.11022131
116	0xbe09e2bc	-0.13465399
117	0xbd751268	-0.059832007
118	0xbe02ecac	-0.12785596
119	0xbceb48aa	-0.028721172
120	0x3ddbe51a	0.10737057
121	0xbde49196	-0.11160581
122	0x3c226080	0.009910703
123	0xbd536350	-0.051608384
124	0xbc9cef6f	-0.01915714
125	0x3d416a28	0.04722038
126	0xbd96b6f4	-0.07359114
127	0x3d83c668	0.06434327
128	0x3dd598c2	0.10429527
129	0x3cc606fa	0.024173249
130	0xbdb2fdb8	-0.08739799
131	0x3c3bc570	0.011460647
132	0x3dc8209a	0.09771843
133	0x3db11831	0.08647192
134	0x3d6980ec	0.057007715
135	0xbd335944	-0.043786302
136	0xbdbdf807	-0.09275823
137	0xbe6ff0f7	-0.23431765
138	0xbd70101d	-0.058609117
139	0xbcd433ba	-0.025903571
140	0xbf5712d2	-0.8401309
141	0xbd7b110d	-0.061295558
142	0x3dd175d0	0.10227549
143	0x3c33db10	0.010977522
144	0xbde8687d	-0.113480546
145	0xbb3fb4dd	-0.002925209
146	0xbcd5953a	-0.026072133
147	0xbddee094	-0.10882679
148	0x38509f1e	4.9739254e-05
149	0xbd9288f0	-0.07155025
150	0x3cdd5d95	0.027022162
151	0x3b131805	0.0022444737
152	0xbdbfeaf8	-0.093709886
153	0x3dde34fe	0.10849951
154	0xbe10738f	-0.14106582
155	0x3ce8c280	0.028413057
156	0xbd7b9935	-0.061425406
157	0xbe62b27d	-0.221384
158	0xbe2267ca	-0.15859905
159	0x3dd97976	0.1061887
160	0x3d71b8ac	0.059014007
161	0x3dc51055	0.09622256
162	0xbe5226b4	-0.20522577
163	0xb923e800	-0.00015631318
164	0x3d9466aa	0.07246144
165	0xbe621d9d	-0.22081609
166	0x3c100920	0.008791238
167	0x3d49581b	0.04915629
168	0xbe4decb5	-0.20109828
169	0x3d5429ec	0.051797792
170	0xbcf4c8ee	-0.029880967
171	0xbd0785d4	-0.033086613
172	0xbe17aac7	-0.1481124
173	0xbd857d74	-0.06518069
174	0xbdbfb10c	-0.09359941
175	0xbdc52b4d	-0.096273996
176	0x3de338c2	0.1109481
177	0x3d9e7033	0.07736244
178	0x3d7d8822	0.061897404
179	0xbd017bf4	-0.03161235
180	0xbe650fa2	-0.22369245
181	0x3d277288	0.04088071
182	0x3cb94968	0.02261801
183	0xbda4e0a7	-0.080506615
184	0x3d9bf28c	0.076146215
185	0xbdaca97c	-0.08430764
186	0xbdc1a3f2	-0.09455098
187	0xbd721040	-0.05909753
188	0xb9e6a873	-0.00043994523
189	0xbc040b40	-0.008059323
190	0xbe5cb992	-0.21555164
191	0x3dc8f852	0.09812988
192	0x3dae6e8e	0.085171804
193	0xbdfd671e	-0.12373184
194	0xbccb0e48	-0.024787083
195	0x3d0f1acc	0.034937665
196	0x3d0350c4	0.032059446
197	0xbd610c51	-0.054943386
198	0x3d8cc3c6	0.06873278
199	0xbdd35a3e	-0.10319947
200	0xbdb3121f	-0.08743691
201	0xbe77b790	-0.24191117
202	0xbde7ae7e	-0.113125786
203	0x3cdcebe4	0.02696795
204	0xbf6cf2f1	-0.925582
205	0x3dcb391f	0.09923004
206	0x3ce6ffa0	0.028198063
207	0xbd19b938	-0.037530154
208	0xbe0f2a36	-0.13980946
209	0x3b66817e	0.0035172398
210	0xbe6208f9	-0.22073735
211	0x3d854616	0.065075085
212	0x3d5a7146	0.053330682
213	0x3d55fd90	0.05224377
214	0xbb042772	-0.0020165113
215	0xbe72458a	-0.2365934
216	0xbcaa6548	-0.020800248
217	0xbcb19c18	-0.021680877
218	0xbd098f44	-0.033583894
219	0x3cd5d8e0	0.02610439
220	0xbcc8a5f7	-0.0244932
221	0xbd0bbe53	-0.034117054
222	0xbd98a891	-0.074540265
223	0x3da2e9d4	0.079547554
224	0x3dd0ad32	0.101892844
225	0x3ce34c63	0.027746385
226	0xbe4dc97b	-0.2009639
227	0xbd0eab84	-0.03483154
228	0x3d27d8db	0.040978294
229	0xbddccbf9	-0.10781092
230	0xbd934070	-0.07190025
231	0x3db93747	0.090437464
232	0xbdbfc009	-0.093628
233	0x3cb04170	0.021515578
234	0x3b0216b6	0.0019849963
235	0x3dbe1732	0.09281768
236	0xbdb0ef60	-0.08639407
237	0x3c036bf0	0.00802134
238	0xbd8c840e	-0.06861125
239	0xbdf9ac91	-0.121911176
240	0xbdd269f1	-0.10274113
241	0xbdb1b909	-0.08677871
242	0xbd52d76d	-0.051474977
243	0x3ddad486	0.10685067
244	0xbd9d3d28	-0.0767768
245	0xbddb911c	-0.10721037
246	0xbd79ad9e	-0.06095659
247	0x3d3ed25b	0.04658733
248	0xbda10352	-0.078619614
249	0xbc92c19b	-0.017914584
250	0x3c50d5e0	0.012746304
251	0x3d2b012c	0.041749164
252	0xbe27634c	-0.16346473
253	0x3d0bd490	0.034138262
254	0xbe47b7b7	-0.19503675
255	0x3c1ceb10	0.009577528

fc3.bias f4 [5]
0	0xbdd3ebbb	-0.103476964
1	0xbe057315	-0.13032182
2	0xbe3081a6	-0.17236957
3	0xb9f5f222	-0.00046910445
4	0xbd31f947	-0.04345062
